Net(
  (attr_net): Net(
    (driverID_em): Embedding(24000, 16)
    (weekID_em): Embedding(7, 3)
    (timeID_em): Embedding(1440, 8)
  )
  (spatio_temporal): Net(
    (geo_conv): Net(
      (state_em): Embedding(2, 2)
      (process_coords): Linear(in_features=4, out_features=16, bias=True)
      (conv): Conv1d(16, 32, kernel_size=(3,), stride=(1,))
    )
    (rnn): LSTM(61, 128, num_layers=2, batch_first=True)
    (attr2atten): Linear(in_features=28, out_features=128, bias=True)
  )
  (entire_estimate): EntireEstimator(
    (input2hid): Linear(in_features=156, out_features=128, bias=True)
    (residuals): ModuleList(
      (0): Linear(in_features=128, out_features=128, bias=True)
      (1): Linear(in_features=128, out_features=128, bias=True)
      (2): Linear(in_features=128, out_features=128, bias=True)
    )
    (hid2out): Linear(in_features=128, out_features=1, bias=True)
  )
  (local_estimate): LocalEstimator(
    (input2hid): Linear(in_features=128, out_features=64, bias=True)
    (hid2hid): Linear(in_features=64, out_features=32, bias=True)
    (hid2out): Linear(in_features=32, out_features=1, bias=True)
  )
)
[('alpha', 0.1), ('batch_size', 64), ('epochs', 1), ('kernel_size', 3), ('log_file', 'run_log_0909_train1234_cpu'), ('pooling_method', 'attention'), ('result_file', None), ('task', 'train'), ('weight_file', None)]
Training Epoch 0, File train_00, Loss 0.371489971876
Training Epoch 0, File train_01, Loss 0.294276446104
Training Epoch 0, File train_02, Loss 0.298331290483
…
